modelo_entrenado.pth (torch, 7755 bytes, 7 tensors)

capa1.weight f4 [32, 10]
000000 2a 20 3b be 97 26 d1 3d ca af ed 3d 0a 00 92 be
       -0.18273988 0.102124386 0.11605795 -0.28515655
000010 7a 9b 56 3e 1e aa dc 3c 30 22 48 ba 99 2b 80 3e
       0.20957747 0.026936587 -0.0007634489 0.25033262
000020 85 ef 94 be e4 8a 21 3e 54 3b 06 be 91 5b 14 bd
       -0.2908899 0.15775639 -0.1310857 -0.036220137
000030 90 e8 0f 3e 4b 6a 97 be 02 30 be 3d a7 c2 8c be
       0.1405356 -0.29573283 0.092865005 -0.27492258
000040 8b 1d 35 bd a6 32 7e 3c 6c 08 8f 3d 6c 0a 12 3e
       -0.044217627 0.015515005 0.06984028 0.14261788
000050 7d 5c 71 3e 6c 5a 16 3e fc 84 f4 3d 44 a0 b0 3d
       0.23570438 0.1468293 0.11939427 0.08624318
000060 39 47 9c be 0d 1e 89 be 73 21 85 3e db f2 e2 bd
       -0.3052309 -0.2678074 0.26002082 -0.11081477
000070 b2 db f2 3d e1 b9 80 3e f5 b5 5b bd 84 ca 7d bc
       0.1185831 0.25141814 -0.053640325 -0.015490178
000080 fd d9 8b 3e 12 6d 75 be ee 62 0c 3e 35 2b 9b 3e
       0.2731475 -0.23967388 0.13709614 0.30306402
000090 91 a0 62 3e e6 05 06 be c1 45 83 3e 4a 9a c7 bd
       0.22131564 -0.13088188 0.25639156 -0.09746225
0000a0 b2 77 10 bd 41 e9 75 bc 34 28 72 be 8d cc 69 3e
       -0.0352704 -0.015009225 -0.23648149 0.22831936
0000b0 0d 30 82 3e 37 b2 f5 3c 10 55 71 be a9 76 9b 3e
       0.25427285 0.029992206 -0.23567605 0.30363968
0000c0 1a 3b 05 3e 54 13 28 be 6a 3b 37 be 12 24 48 3e
       0.13010827 -0.16413623 -0.17893758 0.1954501
0000d0 3e 5d 93 3e 3b 73 99 be 30 b3 9c 3e d2 62 a1 3e
       0.28782076 -0.29970726 0.3060546 0.31520706
0000e0 d5 62 22 be c4 b8 dd 3d 07 0e 21 3e 23 f4 c5 bd
       -0.15858014 0.10826257 0.15728007 -0.09665706
0000f0 1c e2 14 be f1 b0 4b 3d 66 35 9f bc 5f 41 0a 3e
       -0.14539379 0.04972929 -0.019434642 0.135015
000100 11 d1 3a 3d a1 62 8f 3e 71 1c 91 be 7f 7e a5 3c
       0.045609538 0.28004935 -0.28342012 0.02020192
000110 7f 22 75 3d 8a c1 4f 3e 6c d3 1f 3e 4b bd 8f 3e
       0.05984735 0.20288673 0.15607995 0.28074107
000120 88 2a d5 bd 7c d1 52 3e 69 34 44 3e 21 14 3e 3c
       -0.10408503 0.20587724 0.19160618 0.011601479
000130 76 34 12 3e bb de 04 3e 21 c4 49 3e bb fa 6f be
       0.14277825 0.1297559 0.19703723 -0.2343549
000140 86 7f 55 3b cf ef 60 be 3b b1 83 bc 62 a9 19 3e
       0.003257723 -0.2196648 -0.016075721 0.1500602
000150 57 c7 91 3e dd 12 99 3e ec 99 f9 3c 95 34 a2 be
       0.28472397 0.29897204 0.030468903 -0.31680742
000160 45 a4 be bd 06 3e 9d bd cb bb 1e be d6 58 1d 3e
       -0.09308676 -0.07677846 -0.15501325 0.1536592
000170 3d b5 b1 3d 1c a8 0a be bf ce 05 be 83 b8 a1 3e
       0.086771466 -0.13540691 -0.13067149 0.31586084
000180 e7 43 ae 3d 1d 47 5f 3e da 3e c2 3d 30 eb 86 3e
       0.08509045 0.21804471 0.09484644 0.2635131
000190 a0 12 29 be 18 33 9b 3d b5 fa 21 3d 9e be 70 be
       -0.16511011 0.07578105 0.039545733 -0.23510215
0001a0 cd 8d 95 3e 3a 59 76 3e fe b9 c9 3d 4f 84 98 be
       0.29209748 0.24057475 0.09849928 -0.29788443
0001b0 b1 e4 37 be 66 66 2a 3e 5f c5 99 bd e2 40 32 3e
       -0.17958333 0.16640624 -0.07508349 0.17407563
0001c0 58 fc bc bd 9c f8 90 3e b9 5f 55 3e da 71 76 3e
       -0.09227818 0.28314674 0.20837297 0.24066868
0001d0 6e 2d 38 3e 0e c7 1d 3e d4 61 89 3e a0 0d 3a be
       0.1798608 0.15407965 0.2683245 -0.1816926
0001e0 da c3 27 3e e8 2a 1b 3e a0 77 5c 3d f9 10 5c be
       0.16383305 0.15153086 0.05382502 -0.2149085
0001f0 46 ac 46 3e 40 41 72 be 5e f1 c3 3d d8 cc 31 3e
       0.19401655 -0.23657703 0.095675215 0.17363298
000200 60 4e 14 3e a4 8f 93 be fb 56 fb 3d af cb a5 bd
       0.14483023 -0.28820527 0.122724496 -0.0809549
000210 13 36 89 3e 14 cb 82 3b 49 0f 15 bd f2 8e ef bc
       0.26799068 0.003991494 -0.03639153 -0.029242966
000220 8c 4b e0 bd 8d 88 9a be 8e bf 13 bd 98 1a d1 3d
       -0.109519094 -0.30182305 -0.036071353 0.102101505
000230 5d a7 9c be 4d 93 ed 3a c0 68 e9 3d ab 2e 2a bd
       -0.30596438 0.0018125564 0.113969326 -0.041548412
000240 52 29 82 be 46 c8 14 3e f7 e7 da bc 1a f5 47 3d
       -0.2542215 0.14529523 -0.026721938 0.04881773
000250 36 71 97 bc 55 ad 49 3e 4d b7 87 be a9 c0 38 be
       -0.0184866 0.19695027 -0.26507035 -0.18042244
000260 b1 d3 5d 3e fa 53 28 3e f4 31 25 be 0c 34 ff 3d
       0.21662785 0.16438285 -0.16132337 0.12461099
000270 28 88 47 be f4 54 55 3e 01 8f 9b be 9e de 17 be
       -0.19485533 0.20833188 -0.3038254 -0.14831015
000280 12 e4 83 be 2e 17 64 be 07 ff b0 3d 49 f1 90 3e
       -0.2575994 -0.22274467 0.086423926 0.28309086
000290 bb 74 86 3d 1d 20 10 be 4f ea 34 3d 3e 54 3e 3d
       0.06565233 -0.1407475 0.044168767 0.04646706
0002a0 ee 4d 08 3e ac 04 28 be 42 09 15 be 3d df 9e be
       0.13310978 -0.16408032 -0.14554313 -0.31029692
0002b0 43 52 84 be bd 57 15 3d e3 09 2b 3e 0b a4 a0 be
       -0.2584401 0.036460627 0.1670299 -0.31375155
0002c0 aa 0c 2f be af 90 31 bd 60 9e f0 3d b6 fe 19 3e
       -0.17094675 -0.04335087 0.11748958 0.15038571
0002d0 e4 69 53 be 29 53 97 be 3d c5 1d bc fd c3 8f 3e
       -0.20645863 -0.29555634 -0.009629545 0.28079215
0002e0 45 39 15 bd 76 ad 46 3e e4 50 4e be 17 86 2a 3e
       -0.03643157 0.19402108 -0.20148045 0.16652714
0002f0 67 af 0b 3e d2 2a 2d 3e 8c b3 83 be 2e 8f 6d be
       0.1364113 0.16910866 -0.2572292 -0.2319915
000300 3f b0 84 be 7c 3d b8 bd 6c ef db b9 5f 38 93 3e
       -0.25915715 -0.08996102 -0.00041949318 0.28753945
000310 f6 48 55 be 97 33 92 bd a3 36 60 be ee cb 9d 3d
       -0.20828614 -0.07138746 -0.21895842 0.07704912
000320 c8 7d 59 be 50 35 b8 bd 51 b0 7c bd a5 9d 80 3e
       -0.21239388 -0.089945436 -0.061691586 0.25120273
000330 2c e1 c1 3d 97 2a 89 bb c2 fa 89 3e 96 47 db bd
       0.09466776 -0.0041859853 0.26949126 -0.10707013
000340 4c 18 93 be f0 3b 1a bc e8 fb e1 bd 24 81 62 be
       -0.28729475 -0.009413704 -0.110343754 -0.22119576
000350 ef 5f 56 3d b6 bf f5 bd 7a ac 77 bd 80 15 ce 3c
       0.052337583 -0.119994566 -0.06046722 0.025156736
000360 f7 71 bf 3d 48 6d 15 3e 59 96 44 bd e3 1d 04 be
       0.09347909 0.14592469 -0.047994945 -0.12902026
000370 9f d9 ef bc 98 e9 67 be 9a 80 08 3e 59 0e 16 be
       -0.029278575 -0.22647703 0.13330308 -0.1465391
000380 1f d5 8d 3d 35 cc 14 3c fe e4 5d 3e 4a 07 78 be
       0.06925415 0.00908189 0.21669385 -0.2422153
000390 27 fa d4 3d 59 4b 9c 3e 03 3f 77 3e 41 38 90 be
       0.10399275 0.30526236 0.24145131 -0.28167918
0003a0 41 4a 42 3c ff b7 43 3e 5d ee 9b 3e 54 74 0e be
       0.011858524 0.19113158 0.30455294 -0.13911563
0003b0 73 0f 95 3e 82 86 90 be 21 ac 8c 3e 07 0a 63 3e
       0.2911335 -0.2822762 0.27475074 0.22171794
0003c0 ee 92 12 3e e1 dc 2b be 48 c7 68 be c1 16 3a 3e
       0.14313862 -0.16783477 -0.2273227 0.18172742
0003d0 2f 3b 13 be b6 12 78 3e ae 9f b9 3d 8b f6 86 3e
       -0.14378045 0.24225888 0.090636596 0.26359972
0003e0 18 26 1e 3e 0c b2 8e 3c f9 0e 93 be f4 d7 9b be
       0.15444219 0.017418884 -0.2872236 -0.30438197
0003f0 9d c4 0b be 36 48 95 be 00 77 1b be 77 6f 5c 3d
       -0.13649221 -0.29156655 -0.15182114 0.05381724

capa1.bias f4 [32]
000000 6b 5d 68 3d 47 85 2c be 71 fd ae 3d 7b e3 1b 3e
       0.056729715 -0.16847716 0.08544434 0.15223496
000010 fa af 06 be d6 92 1e 3e 1a 25 6e 3e d9 ec 94 3e
       -0.13153067 0.15485701 0.2325634 0.2908695
000020 db d1 73 3e 3c 3a a0 be bd ed f4 3d 91 cb 1c 3e
       0.23810522 -0.3129443 0.119594075 0.1531203
000030 9f 89 82 be bd 33 9c 3e 1f 72 9a 3e e6 14 32 be
       -0.25495622 0.30508223 0.30165192 -0.17390785
000040 fc 0e ca bd 9f 10 4b 3e 6f 2a 8c be 3d 31 8f 3e
       -0.09866139 0.19830559 -0.27376124 0.27967253
000050 ff e9 4f be a2 08 83 3e 2e c1 08 be 76 8c 31 3d
       -0.20304106 0.25592524 -0.13354942 0.043346845
000060 08 16 48 be 79 74 12 3e e4 90 ab 3d c9 f7 c5 bd
       -0.19539654 0.14302243 0.08377245 -0.09666402
000070 70 3f 4b 3e 0a e8 7f 3e ec 77 3a 3e 44 4b 4c be
       0.19848418 0.2499086 0.18209809 -0.19950587

capa2.weight f4 [16, 32]
000000 cb 19 e5 3b 11 7a 26 bd 3f 3a c3 3d e6 f2 76 3d
       0.0069916 -0.040643755 0.09532594 0.06029024
000010 3d 06 fa 3d 75 98 b4 bd 83 f3 f7 bd ec 0c cd bd
       0.12208221 -0.08818141 -0.12106993 -0.1001223
000020 63 8c 01 3e 9f d5 f6 3d 00 2b 2b bd 98 62 a9 bd
       0.1265121 0.12052464 -0.041789055 -0.082707584
000030 ab f2 06 3e 97 6f 09 3e f9 2e fb 3c e6 58 8b 3d
       0.13178508 0.13421474 0.030662047 0.068040654
000040 06 39 08 3b 4b e0 c6 3c 52 58 54 bd df aa 05 bd
       0.0020785942 0.024276873 -0.05184204 -0.03263366
000050 a6 dd b9 3d 56 fa ec 3d 4c 10 94 3d df 3d 93 3d
       0.09075479 0.11571185 0.07229671 0.07189535
000060 42 fc 24 3e b1 7d 32 3d bd 7d 08 be 49 29 9b bd
       0.16111854 0.0435769 -0.13329215 -0.07576234
000070 2d fe da bd 2f a6 d9 3d bf 1b 9d 3d 91 d1 26 3d
       -0.106930114 0.106274 0.07671308 0.0407272
000080 96 55 0d 3d 0b 4a 1f 3e 70 08 e7 bd c6 2d c5 bb
       0.03450545 0.15555589 -0.11280906 -0.0060174195
000090 e6 7e 1e be 48 b7 e0 bd 56 d2 cc bd 27 45 e1 bc
       -0.15478095 -0.10972458 -0.10001056 -0.027498795
0000a0 16 e0 12 be 63 07 c0 3d c5 3d 0f be ef b7 30 3e
       -0.14343295 0.09376409 -0.13988407 0.17257665
0000b0 ab 76 29 be c4 b4 b6 3d b6 3a 46 3d 80 d2 6f 3d
       -0.16549174 0.08921197 0.048395835 0.058550358
0000c0 8d 28 c3 3d 97 57 09 be fb dd 33 be 38 61 1a be
       0.09529219 -0.13412319 -0.17565148 -0.15076149
0000d0 48 8c f5 bc bd 97 56 3d 07 0d 97 3c 4e 79 13 3e
       -0.029974118 0.052390803 0.01843883 0.14401743
0000e0 4c 63 62 bd 95 81 2d 3e 5a ff 5b bd cd 34 ab 3d
       -0.055270478 0.16943963 -0.05371032 0.0835968
0000f0 b1 94 0c be 47 92 11 be 97 e5 b5 bb 66 aa 1e 3e
       -0.13728596 -0.14215957 -0.005551051 0.1549469
000100 99 a4 0d 3e e2 e9 2d be cf 99 f6 bd ea b6 36 bd
       0.1383232 -0.1698375 -0.120410554 -0.044608034
000110 06 8d 16 be 8d 94 e5 3c eb 54 21 3e ee cc d8 bd
       -0.14702234 0.028024936 0.1575505 -0.10585962
000120 3a 58 2c be 11 28 11 3e 1d 9c 0e 3e 4a 2c 6e 3d
       -0.16830531 0.1417544 0.1392674 0.058147706
000130 7d 58 a8 bc 59 11 0c 3e 5b 4f 2c bc 1c 7a 32 3e
       -0.020550007 0.13678493 -0.010516967 0.17429394
000140 14 01 0f 3e dc 41 9f bd 36 ae d3 bd 1d 57 19 3e
       0.13965255 -0.077762336 -0.103359625 0.14974637
000150 ff 11 b3 3d ed 7a 06 3e ff 3d 21 3e 9e 61 3a 3d
       0.08743667 0.1313283 0.15746306 0.04550325
000160 0e 52 09 be 24 10 9b bc b1 27 96 3d 62 73 99 bd
       -0.13410208 -0.018928595 0.07331789 -0.07492711
000170 8d 32 4e bd 99 cf 9f 3d 22 68 ff 3d 19 25 24 3d
       -0.050341178 0.07803268 0.12471034 0.04007444
000180 70 47 ce 3d 5d 1e da bd a2 40 f9 3d 10 fd 7a bd
       0.10072219 -0.106503226 0.12170531 -0.061276495
000190 b0 d3 69 3d dd 20 22 3e b1 90 06 3e fa 05 31 be
       0.057086647 0.15832849 0.13141133 -0.17287436
0001a0 e7 5f 16 3e 43 fb ed bd 12 6f 01 be c6 dc f2 3d
       0.14685021 -0.1162019 -0.12640026 0.118585154
0001b0 8c 12 ec bd 69 48 1f 3e cb 9d 18 3e df 1d 50 3d
       -0.11526975 0.15554966 0.14903943 0.050809737
0001c0 26 c5 d0 bd 26 04 bb bd 06 56 f6 bd 9b d8 2b be
       -0.10193853 -0.091316506 -0.120281264 -0.16781847
0001d0 d4 66 0a be 36 b5 a6 bd 83 33 c2 3c 67 f4 1e be
       -0.13515788 -0.08140032 0.023706203 -0.1552292
0001e0 e1 71 0a be 37 5e 24 3e f3 de b6 3b 4d c7 2f be
       -0.13520004 0.16051565 0.005580777 -0.17165871
0001f0 49 2d 0a be cb 10 1c 3e c8 b3 9a bd fb b0 b9 3d
       -0.13493837 0.15240781 -0.07553822 0.090669595
000200 95 57 ef ba cc 7b d7 3c 42 06 87 bc a1 e6 a5 3c
       -0.0018260354 0.026304148 -0.016482476 0.020251574
000210 8c 1c d3 3d 91 47 20 3e 27 70 a0 3d f0 1f 13 be
       0.10308179 0.156523 0.07833891 -0.14367652
000220 52 c4 d5 3d d6 6e 5a 3d b2 c5 9d 3d 97 40 cd bd
       0.10437836 0.053328358 0.07703723 -0.10022085
000230 72 84 3d 3d b5 ae 00 be e8 8f ac 3d 02 64 f1 3d
       0.046268888 -0.12566645 0.084258854 0.11786653
000240 c1 99 2a 3d 88 62 ed 3d 4f 09 32 3d d3 d2 14 be
       0.041650537 0.11591059 0.04346591 -0.14533548
000250 fb 7d 15 3e 84 61 ac 3d 89 65 cd bd 68 96 57 bc
       0.14598839 0.08417037 -0.10029132 -0.013158418
000260 2f 66 0c 3e 9a 9c 0f be c9 ab fa 3d 12 b6 dc 3d
       0.13710855 -0.14024583 0.12239797 0.10776915
000270 78 de 1d 3e 73 79 29 3c 78 14 51 3c c6 ad c8 3d
       0.15416896 0.010343897 0.012761228 0.0979877
000280 e2 4f 31 3e 93 84 f6 bc bc c4 99 3d b3 a7 39 3d
       0.17315629 -0.030092513 0.07508227 0.045325946
000290 67 44 d0 bd 00 a4 ed 3d c7 c6 93 bb 4c 02 75 3c
       -0.10169297 0.11603546 -0.00450978 0.014954161
0002a0 00 79 a8 3d 07 de aa 3d 94 c0 e6 3d aa 4a 92 bc
       0.08226204 0.083431296 0.112672 -0.017857868
0002b0 b7 73 9f 3d 70 0a 11 3e 1c 3b ac 3d b3 aa b8 3d
       0.07785743 0.14164138 0.08409712 0.09016933
0002c0 ae ea 2d 3e 20 b0 9b bd 24 8f b8 3c 1c eb 31 3e
       0.16984054 -0.076019526 0.022529192 0.17374843
0002d0 50 48 14 3e a8 58 f1 bb 44 56 2b 3e 9d 44 00 be
       0.1448071 -0.007365305 0.16732126 -0.12526174
0002e0 1d 09 98 bd ab 1e 79 bd 30 84 bd 3d f7 49 46 3d
       -0.07423613 -0.060820263 0.092537284 0.048410382
0002f0 b6 ec d5 bd 8c b2 72 3c 10 7e 9c 3d 90 16 13 be
       -0.1044554 0.014813077 0.07641232 -0.14364076
000300 6a 71 26 3d 04 69 18 be 0d 9c 09 3e e0 b7 1f 3e
       0.040635504 -0.1488381 0.13438435 0.15597486
000310 49 62 b7 3c 1a 61 04 be fe 57 c8 bd 43 16 15 be
       0.022385733 -0.12927666 -0.09782408 -0.14559273
000320 ef ea f2 bd 10 fb 84 3d 0e e4 07 3d f8 8a 31 bd
       -0.11861216 0.06493199 0.033176474 -0.04334542
000330 04 f7 2f be 9e 27 87 3d bf 91 5c 3d d7 27 09 3d
       -0.17184073 0.06599353 0.05384993 0.03348526
000340 83 70 35 3e 1d db 2f 3e bf 37 0d 3e 92 a0 ca 3d
       0.17718701 0.17173429 0.13790797 0.098939076
000350 ca 3e dc bd 60 08 f0 bb 84 48 33 be 57 87 d3 bd
       -0.107541636 -0.007325217 -0.17508131 -0.103285484
000360 ca 3f ea bd 16 e0 84 3d 43 ca 08 be cc 25 02 3e
       -0.11437948 0.064880535 -0.13358407 0.12709731
000370 02 94 0f 3c f6 21 18 be 48 83 ad 3d 08 44 ea 3d
       0.008763315 -0.14856705 0.084723055 0.11438757
000380 d2 be 1a 3d 48 c2 16 3e 59 c0 d3 3d 17 56 b0 bd
       0.037779637 0.1472255 0.10339422 -0.0861017
000390 fb 83 19 be f5 ce f0 bd 92 23 dd bd 4e 0a 05 3e
       -0.14991753 -0.11758224 -0.107978 0.12992212
0003a0 c8 e6 4f bd ec 40 6c 3b 25 e7 00 bd 44 ff 10 3e
       -0.0507572 0.0036049439 -0.031470437 0.14159876
0003b0 14 b1 24 be 1d f3 cf bd a2 54 0e 3d be 11 dd 3d
       -0.16083175 -0.10153792 0.03474868 0.107944
0003c0 2a b9 1d be 5c 3f 13 be fa 8a 42 3d f3 3a 63 bd
       -0.15402666 -0.14379638 0.04749582 -0.05547614
0003d0 ea f6 f5 3d 0e c7 e0 3d cf 38 09 be 67 9f 93 bd
       0.12009986 0.10975467 -0.13400577 -0.07208138
0003e0 21 98 16 be 71 91 c4 bd 55 ad 96 3d 89 c9 03 bd
       -0.1470647 -0.09598053 0.07357279 -0.03217462
0003f0 e6 ef 00 be 7c c1 de 3c 82 4b 82 bd a5 75 28 3e
       -0.12591514 0.02719187 -0.06362058 0.16451128

capa2.bias f4 [16]
000000 5c 37 a5 bd 25 78 18 3c 0d 92 f7 3d 7f f7 10 be
       -0.080671996 0.009305988 0.12088404 -0.14156912
000010 f8 b9 26 bd 1a 06 c7 bd a6 07 20 be a5 95 dd 3a
       -0.040704697 -0.09717961 -0.15627918 0.001690556
000020 14 e2 1c be 83 ce ce 3d f6 c8 b9 3c 4e 2e 20 3e
       -0.15320617 0.10097983 0.022678833 0.15642664
000030 63 c9 90 3c c0 5c 43 3a 38 39 a8 bd 93 75 13 be
       0.017674154 0.00074524805 -0.082140386 -0.1440032

capa3.weight f4 [8, 16]
000000 2d 38 0f be 1d ee a0 bc b5 57 04 bd ed d6 7e bd
       -0.13986273 -0.019644791 -0.032310206 -0.062216688
000010 63 69 2d be 5b 63 36 3e 0e 5a 16 bd 3e 4b 3d be
       -0.16934733 0.17811339 -0.036706977 -0.18485734
000020 fa 4e 85 bc a5 ac 6a bd 59 2c 28 be 81 7d 56 be
       -0.01627301 -0.057293553 -0.16423167 -0.20946313
000030 3b 44 0b 3e d2 52 d7 bd f1 5f b0 3d 65 cc 24 be
       0.13600247 -0.105138436 0.08612049 -0.16093595
000040 7e 9c 1d 3d 23 c8 a1 bd e3 20 26 3d c8 ef e5 bd
       0.03847932 -0.07899501 0.040558707 -0.11227375
000050 40 86 1e be cd 72 22 bd 74 9e e6 3d f0 8b 94 bd
       -0.154809 -0.039660264 0.11260691 -0.072532535
000060 84 37 d7 3c 6d 24 7a 3e 54 4d 50 3e 3c ca 33 be
       0.02627159 0.24427958 0.20341998 -0.17557615
000070 9a bc 37 be 4b 9f 5a 3e 00 4b e1 bc 40 99 5e 3c
       -0.1794304 0.21349828 -0.027501583 0.013586342
000080 01 c0 76 be 10 1c 29 be 63 e3 0b 3e c7 6b 0a 3e
       -0.24096681 -0.16514611 0.1366096 0.13517676
000090 e2 dd b6 bd 5d 63 18 be 8a 35 07 be 23 9f 42 3e
       -0.089290395 -0.14881654 -0.13204017 0.19006018
0000a0 71 89 73 be 6f c8 25 3e 33 09 36 be b5 20 11 3d
       -0.23782898 0.1618974 -0.17776947 0.035431582
0000b0 22 ef fe 3d c3 dd 55 be 84 66 3b 3e 14 99 d7 bc
       0.12447955 -0.20885377 0.18300825 -0.02631811
0000c0 e5 0e 4f 3e 82 fe 98 3d 35 66 3b be fa 96 1e be
       0.20220526 0.074704185 -0.18300708 -0.1548728
0000d0 39 c7 5e 3e 19 f3 5e 3e b8 f3 04 3e 06 9b 97 bd
       0.21755685 0.21772422 0.12983596 -0.07402615
0000e0 f7 9b 1f be 42 f4 28 bd 29 36 1b 3e c3 55 a7 bb
       -0.1558684 -0.041248567 0.15157379 -0.005106659
0000f0 2d 4e 80 bd 6d 86 c9 bd 68 db ad bd 7e 60 15 be
       -0.06264911 -0.09840093 -0.08489114 -0.1458759
000100 36 9c 8f bd 88 c8 88 3d 88 a8 22 bd ac a3 c0 bd
       -0.07012217 0.06678873 -0.039711505 -0.09406218
000110 9e 9b 29 be 0c 1c cc bd 32 f6 64 be 8a 96 48 3e
       -0.1656327 -0.09966287 -0.22359541 0.19588676
000120 4e e5 14 3e 56 26 02 3e aa 6e 0f be da c6 4c be
       0.14540598 0.12709936 -0.14007059 -0.19997731
000130 23 aa 2b be ee 35 6a 3e b0 07 3c 3d 14 59 e1 3d
       -0.16764121 0.22872135 0.04590577 0.110033184
000140 9d 6f 85 3d e6 29 64 be ea 7c af 3d cc 76 8d bc
       0.06515429 -0.22281608 0.08568747 -0.01726856
000150 67 ae cc bb 42 d1 f3 3d b2 cf 5a be 7e 92 1b 3e
       -0.0062463763 0.11905147 -0.21368292 0.15192601
000160 18 80 f9 3b 69 a4 27 3e ad fe da 3d 8c f6 5f be
       0.007614147 0.16371311 0.10693107 -0.21871394
000170 53 a3 00 be d9 41 ab 3d 39 83 e5 3d 08 c4 de 3c
       -0.12562303 0.08362169 0.11206669 0.027193084
000180 ea fe 8e bd cd 5a e1 bd eb ed 7c 3d 95 4b d0 3d
       -0.06982215 -0.11003647 0.061750334 0.10170666
000190 af 7e 19 3e 93 6d 6c bc 7c c9 13 3e b1 60 4d 3d
       0.14989732 -0.014430421 0.14432329 0.05014104
0001a0 9a c9 95 ba f7 8a 7a 3e e1 ee 5b 3e b0 7b b9 ba
       -0.001142788 0.24467073 0.21477844 -0.0014151242
0001b0 56 37 c8 3c ca d2 f8 bd 2a ae c7 bd ae d6 0d be
       0.024440449 -0.1214958 -0.09750016 -0.13851425
0001c0 ea e6 3a 3e 2a c4 11 bd 0a 9b 54 be 18 13 df bd
       0.18252149 -0.035587467 -0.20762268 -0.10892314
0001d0 57 50 11 be 44 88 de 3d 51 af 63 be 3b 81 8f 3b
       -0.14190803 0.10865834 -0.22234847 0.004379419
0001e0 de da 4b 3e 3a 2d 15 3e d2 5d 96 bd b3 61 2a 3e
       0.1990771 0.14568034 -0.073421136 0.16638832
0001f0 e8 5f 0f be 11 ab 6d 3d 6b 32 a0 3c 37 ed ae bd
       -0.14001429 0.05802447 0.019555291 -0.08541339

capa3.bias f4 [8]
000000 3e ea e3 3d cb 06 6b be d7 6a 05 3e 83 2f 00 bd
       0.111286625 -0.2295181 0.13029037 -0.03129531
000010 60 ec 24 be 63 c5 04 3d 9d 82 77 bd 1d 31 4b 3d
       -0.16105795 0.032414805 -0.060427297 0.049607385

capa4.weight f4 [1, 8]
000000 93 5b 77 be 06 70 97 be c1 d1 92 3e cd 0c 3a 3e
       -0.24156027 -0.29577655 0.28675655 0.18168946
000010 ce cf f0 3d e4 0f fa bd 2e 19 5a be 53 86 65 3c
       0.117583856 -0.12210062 -0.21298668 0.014009076
