modelo_entrenado.pth (torch, 7755 bytes, 7 tensors)

capa1.weight f4 [32, 10]
00000000: 442e 0fbe fcd0 9abe 669c 273d 1fa2 243e
00000010: 9dcb af3c 8cea 563e 13ee 57be 9b80 d2bd
00000020: a4f0 313e e864 773e f657 1ebe 998c 38be
00000030: 63a0 93be 21ff 71be b14f 743e 3e26 313e
00000040: 7f2f 923e 8e68 353e 3726 8cbe e698 733e
00000050: a3a7 b83d 1aae f33d cbed 253e b7ce f0bd
00000060: 2d32 323d 3008 873e f720 793e 92f6 13bd
00000070: a309 653e 0e36 123e c388 8bbe 7f23 00be
00000080: 0d5c b03c f6c2 3dbd 8db1 c2bd c39f ca3b
00000090: 9514 1dbe 2549 943e e466 72bd 83ee 15bc
000000a0: c408 2f3e 5ad8 96be 1fe5 973e 201d 7b3e
000000b0: 9ef8 df3c 382c fc3d e7a7 80be 7803 6ebe
000000c0: 3c1f bd3d 0850 313d ef02 8ebe a7f7 dabd
000000d0: 7664 1bbe 5019 023c d69e f8bd 6716 91be
000000e0: 0cf7 7d3d d998 9dbb 3316 83be e28f 3bbd
000000f0: 2ed9 043e 6565 933e e14b 853e 9e50 703e
00000100: daf5 12be a8c1 613d 1517 e2bd 6071 ca3d
00000110: bd24 743e aa97 7abe f78a 993e 3afa f6bd
00000120: 935e e6bd 6e09 053e 99dd 7dbd 34bd ed3d
00000130: 2653 10be befb 573e 3176 913d 6df4 5dbe
00000140: 2df1 f8bd 0abe 3e3e 2387 9c3e 4c43 853e
00000150: b236 8d3d 1b8e 95be b123 ba3d 17e0 763d
00000160: b9f1 133d 8c11 a03e 3613 3f3e 5230 313e
00000170: 95ac 923e 8726 9d3c db24 713e 02a0 3cbe
00000180: af80 8cbe f5a5 853e 26fe 80bd 811a 99be
00000190: 2936 5c3b 4430 98be a520 393c 5e65 4cbe
000001a0: 8318 40bd bc29 123e 08de 8d3e 376f 253d
000001b0: eefe 583e 583e 86be 4c57 abbc e8e3 50be
000001c0: 3498 91be 6b02 8a3e 0c52 0d3d c799 63be
000001d0: e50a 443e 81ee 8bbb a332 76be 8d67 febd
000001e0: 4294 43bd f862 9bbe fa97 983e bda1 3dbe
000001f0: f3b0 4dbe 2870 723d 12a1 0bbe 7a14 f43d
00000200: ae43 5f3e f0af 94be f03e df3d 44ec 673e
00000210: 6ae3 253e 31b8 95be 5e0d 5abb a990 863e
00000220: e2ed e6bc 0832 d7bd c50c 7bbd eeeb 333e
00000230: 9ef7 be3b 3368 95be 9a62 8ebe 2726 083e
00000240: 2456 3bbe 52c7 533e 32e8 dd3d 50e1 693e
00000250: 42be 9bbe 9a90 413e cedf 8fbe 8c9b 44be
00000260: 0406 bf3c dcdb 87be b5ce 543e d4dd 61bd
00000270: ac61 83bd 91f1 9e3e a68c 34be f8c0 e53d
00000280: 94bf 01be 1ea1 5f3e d2dd 823d 8218 51be
00000290: 2d06 25be d603 713e 502d f03d c892 a03d
000002a0: 7e92 96be 166c 9cbe c61a f03d 56f6 3ebe
000002b0: 470c 303e d47b 953e 70cd 843e cfe7 4b3e
000002c0: 3937 373e e690 263e 7086 85be 7b4e 903e
000002d0: fefc 1c3e d651 483e 814f a7bd 4492 193d
000002e0: 5710 7cbe 548f 2dbe ab86 36be c059 06be
000002f0: f7e3 2f3e db05 973e e515 953e fbf5 603e
00000300: 07dd 953e e9ec 60be 1e1e 8e3c d1c3 18be
00000310: 8eea ffbd d33c 533d d0b0 1cbe 1efb 633e
00000320: 7103 02be 569a 523e b4f8 28be 1395 a1bc
00000330: e750 573e ce4d 683c 47d2 0c3e 6167 353e
00000340: 9eff f63c 5359 1bbe b7de db3d d094 f4bc
00000350: a57e 1fbe 8265 d2bd d38d 303d cf7c 9bbe
00000360: 54e3 3fbe 5258 0dbe 6e3b 3abe 32ea bebc
00000370: c7b0 483d 3856 75be 96f1 db3d 14ff 9bbe
00000380: 4925 81bd 863a 12be fd0c 7dbc a6da 7fbe
00000390: c7a5 1d3e b295 443e 8ed3 0e3e 49ec 5d3e
000003a0: bf85 5ebe 7992 843e 221d ecbd 56bc 0fbd
000003b0: 94b5 62be 6dbd 123d 447d 283e 0f5f 8c3d
000003c0: 6d6d 993e 3252 b3bd 9bb1 e73d 337e b93d
000003d0: d816 68be 544d 0cbe b4cc 813e aeeb 143e
000003e0: 7348 43be c0a1 6bbe 0f07 c23d 95c6 263e
000003f0: 857a 41be e9a7 73bd 2dab 8b3e 87ae bb3b
-0.13982493 -0.30237567 0.040920638 0.1607747 0.021459395 0.2098791 -0.21086912 -0.10278436
0.17376953 0.24159586 -0.15463242 -0.18022384 -0.28833303 -0.2363248 0.23858525 0.17299744
0.28551862 0.17715666 -0.27372906 0.23788795 0.09016349 0.118984416 0.16203992 -0.11758178
0.043504883 0.26373434 0.24328981 -0.03612382 0.22366957 0.14278433 -0.27252778 -0.1251354
0.021528268 -0.046328507 -0.095065214 0.006183596 -0.15339883 0.28962055 -0.059180155 -0.009151104
0.17093188 -0.29461938 0.29666993 0.24522829 0.02734023 0.123131216 -0.251281 -0.2324351
0.09234473 0.043289214 -0.27736613 -0.10691767 -0.15175042 0.007940605 -0.121396706 -0.28337404
0.06200318 -0.0048094806 -0.25602874 -0.045791514 0.12973472 0.28788295 0.26034454 0.23468253
-0.14351597 0.055116326 -0.11039559 0.09884906 0.2384214 -0.24471918 0.29988834 -0.12059446
-0.11248507 0.12991878 -0.06197891 0.11608353 -0.14094219 0.21092126 0.07102621 -0.21675272
-0.12155376 0.18627182 0.3057185 0.26027906 0.06895198 -0.2920998 0.09088839 0.060272302
0.036119197 0.31263387 0.18659672 0.17303589 0.28647295 0.01918341 0.23549215 -0.18420413
-0.27441928 0.26103178 -0.06298475 -0.29903033 0.0033601618 -0.29724324 0.011299287 -0.19960544
-0.046898376 0.14273733 0.2770846 0.040389266 0.21190998 -0.2621944 -0.02091565 -0.2039944
-0.28436434 0.2695497 0.034502074 -0.2222663 0.19144781 -0.0042703752 -0.24042754 -0.124220945
-0.04774881 -0.30348945 0.2980345 -0.1851873 -0.20087032 0.05918899 -0.13635662 0.11917968
0.21803162 -0.2904048 0.10900676 0.22648722 0.16200033 -0.2924209 -0.0033272128 0.26282242
-0.028189603 -0.105075896 -0.061291475 0.17570469 0.005827858 -0.2918106 -0.27809602 0.13295804
-0.18294579 0.20681503 0.10835303 0.22839856 -0.30418593 0.18902817 -0.28100437 -0.19199961
0.023318298 -0.26534927 0.20781977 -0.055143192 -0.06415114 0.31043676 -0.17631778 0.112184465
-0.12670738 0.21838805 0.06389965 -0.20419505 -0.16115637 0.2353662 0.11727393 0.07840496
-0.2940864 -0.30551213 0.11723857 -0.18648657 0.17192183 0.29196036 0.25937986 0.19912647
0.1789216 0.16266212 -0.2607913 0.28184876 0.15330884 0.19562468 -0.08169461 0.037493005
-0.24615608 -0.16949207 -0.17824809 -0.13120174 0.17176805 0.29496655 0.29118267 0.21968834
0.29270193 -0.21965374 0.017348345 -0.14918448 -0.1249591 0.05157168 -0.15301824 0.22263762
-0.12696625 0.20566687 -0.16501123 -0.019724404 0.21026956 0.014178706 0.1375209 0.17715217
0.030151185 -0.15170793 0.10735839 -0.029856116 -0.15575655 -0.10273267 0.043104004 -0.3036866
-0.18739063 -0.13803223 -0.18186733 -0.023305032 0.048996713 -0.23958671 0.10739438 -0.30468047
-0.0630594 -0.14280137 -0.015444991 -0.24985752 0.1539527 0.19197729 0.13947889 0.21672167
-0.21730708 0.25893 -0.11528994 -0.03509172 -0.22139579 0.03582518 0.16454035 0.068540685
0.29966298 -0.08755912 0.113131724 0.09057274 -0.22664964 -0.13701373 0.2535149 0.1454303
-0.19070606 -0.23010921 0.094740026 0.1628669 -0.18894394 -0.059486303 0.27279034 0.0057275924

capa1.bias f4 [32]
00000000: ba5a 133e d36d 2cbe 7c86 f43c 0476 3fbe
00000010: 7a82 4a3e 9606 673d 794b 09bc 23f3 1b3e
00000020: bba1 33be bbae 0d3e 3809 273e d8ef d53d
00000030: d8f5 1a3e 05a5 7dbe 131d f0bc e941 193d
00000040: 1fdd 87be 7024 2fbd 8cd8 573d b39e 8c3e
00000050: eb8c e8bc d531 9d3e bf23 613d 3541 9f3e
00000060: 572d 43be fba1 a0bd 7d51 ff3d 29e9 813e
00000070: 491a 8f3e ca3d 23be 11ac 85be 6111 8d3e
0.14390078 -0.1683877 0.029849283 -0.18697363 0.19776335 0.056402765 -0.0083798105 0.15229468
-0.17542164 0.13836186 0.1631211 0.10446137 0.15132844 -0.24769981 -0.029310739 0.037416372
-0.2653589 -0.04275936 0.05269675 0.27464828 -0.028387507 0.3070208 0.05496573 0.31104437
-0.19060265 -0.07843395 0.124667145 0.253732 0.2794974 -0.1594154 -0.2610784 0.27552322

capa2.weight f4 [16, 32]
00000000: e8a2 b7bb dec0 85bc 8415 ac3d 7710 203e
00000010: bec8 13bc 154d 0c3e bec6 19be d718 dd3d
00000020: 8d36 67bc a7bd 133e 9a51 cabd 421c e93d
00000030: 8e55 22be cbb8 303e 9502 423d d603 393d
00000040: 25d8 fc3d 7689 d13c 4239 efbd aab1 86bd
00000050: 6080 963d 7bdb 20be 6f4c cb3b eb5a 91bd
00000060: ca09 88bd fab9 04bd 7d49 203e 041f 553d
00000070: 7993 a0bd 38b0 73bd a93f 3ebc 15a0 39bc
00000080: d04c 03bc e428 1dbe 5912 083e 10a6 e5bc
00000090: 3d2e 193d 43f2 60bc 243b 02be a8e2 8bb9
000000a0: 45ca ba3d f050 24be 593f 123e ee08 143d
000000b0: e020 23be ec2a 073e a0ec 02be 79b0 ce3d
000000c0: 5a10 e93c eee2 d03d 9b39 c1ba 3184 52bd
000000d0: 9458 163e dcb1 1b3d 1d4d 1e3e 347d 6ebd
000000e0: 31fe 28be 1acb cd3d 9dec 02be 8464 31be
000000f0: 2df8 213e 044e 7e3d 1b49 083e 2782 babd
00000100: 3657 ccbd 2f19 06be c41a bc3d 8ad7 ca3c
00000110: 8c81 84bd f03b fa3d b711 b83d b6f4 d73d
00000120: 431e 0abd 42d3 18be bb1a c13d 874f d4bd
00000130: 4fb3 a8bc af19 f63d 8543 2cbe a27e aabd
00000140: 6e8f 0c3d 0b09 233e 0915 fc3d 9f66 13bd
00000150: 0bf7 c3bd 7b5c 21be a39f 1c3e 5ed6 92bd
00000160: a8a3 2dbe 338e 95bd 23f5 ce3d bc6a 813d
00000170: 4427 c23c 5e67 debd fc4c 043e d605 963d
00000180: 27a1 fb3d aedf 763d 9c3d bdbd 1f0b f8bc
00000190: 66c4 c4bd b61a 1dbd db59 e23d a45d 59bd
000001a0: 54d4 49bd f5fc 0bbe 6130 933d 8238 8abd
000001b0: 7e58 01bd dfc9 2fbe 4237 263d f22f 023d
000001c0: b760 093e 55aa 253e 869d 7d3d 46f2 babc
000001d0: 8ad1 05bd 6c86 99bc e77f d23d 42ed 103e
000001e0: edeb c0bd 12ad 44bd 037d 333e 5147 d8bb
000001f0: 6738 25be 14cb 5d3c a6cc 07be a6b1 7cbc
00000200: 9a8a c1bc 9418 1dbe f0a2 94bd 66ad d63d
00000210: 89a8 843d 390b 0c3e 93af 28be 5afb 8e3d
00000220: 0c17 5dbd ff69 e63d 488a d3bd e8d3 d2bd
00000230: 6ded 33be d69f 903d 1c49 1c3d 062e 73bb
00000240: 6e40 173d fb64 ff3d 0acb 2dbe 4dc8 9fbd
00000250: 9608 e9bd 9a80 bc3d 6416 143e c37c 9abb
00000260: d23c f3bd ca37 eabc acc9 04be 0c03 7dbd
00000270: 3650 85bd 4c76 163e 83b5 9e3d 7bcf 273e
00000280: 99e8 b7bd cf22 fdbc 05c6 8d3c 11d7 15bd
00000290: 2361 fe3d c5b8 1dbe a603 c83d 50c0 1fbe
000002a0: 0ee2 483c 468c ce3d b29b 073e 6830 e53d
000002b0: 852e 593d c9d0 17bd f35f 743c faec 19be
000002c0: 9ca9 fb3d 7e9e b23d f33a 43bd cba3 323e
000002d0: d65f fa3d 4c37 a5bd f2a0 803d 3b1f 1e3e
000002e0: fe36 cc3d 8958 0f3e 100d 913d 4a16 14be
000002f0: 8e60 3f3d 3865 b23d c1bd 06be 8516 f2bd
00000300: 8430 3bbc 668d d3bd 1fee 833d 877e 08be
00000310: bd2d bdbd 27cb 8aba 4cc0 3a3c 8463 f03d
00000320: 250d ccbd 3eee 67ba 065d 303e 03c0 7abd
00000330: 98e0 253e 4d8c 92ba 3d98 59bd 6339 eb3d
00000340: cec1 e1bd 2d3e 19be 6497 e1bd 5c96 b5bd
00000350: 27d5 743d 26c3 b73c b3ff febd 0496 ea3d
00000360: 2e31 bbbd 5887 10be 54f4 bf3b 0e6d 01be
00000370: 5c63 813d a453 0ebe 63b1 ddbd bfe3 323d
00000380: f8ac d3bb bb0b 213e dbf2 2b3e cbb0 e03d
00000390: b9fb a9bd 8a7b a9bc 6579 12be c51e 09be
000003a0: 1518 f7bd ea8a 0ebe b965 74bc a27e 453c
000003b0: d59f 6f3d 6831 c1bd f23a 003d 528f 373d
000003c0: 5280 94bd afb5 30be 6b43 053e 5b7f 4cbc
000003d0: c3b4 98bc 81b3 2bbd 7aa5 8c3d 8ddf 5e3d
000003e0: 8fd7 113e 0755 c5bd 8401 2c3e 0ce4 96bd
000003f0: 6bb8 fdbc a5d4 86bc 324e bd3d 8662 f6bd
-0.0056041367 -0.016327318 0.08402541 0.15631281 -0.009020029 0.1370128 -0.1501722 0.107957534
-0.014112127 0.14427815 -0.098788455 0.11382343 -0.15852949 0.17257993 0.047365744 0.045169674
0.12345914 0.025578242 -0.11680843 -0.065768555 0.07348704 -0.15708725 0.00620418 -0.07097419
-0.06642492 -0.032403924 0.15653034 0.052031532 -0.07840628 -0.059494227 -0.011611857 -0.01132967
-0.008013919 -0.1534763 0.13288249 -0.028033286 0.037397612 -0.013729635 -0.12717873 -0.00026681018
0.09120611 -0.160465 0.14281978 0.03614133 -0.1593051 0.13199967 -0.12785578 0.10092253
0.02845018 0.101995334 -0.0014741899 -0.0513956 0.14682227 0.038011417 0.15459104 -0.05822487
-0.16503216 0.10048504 -0.12785573 -0.173235 0.15817328 0.06208612 0.13309138 -0.09106856
-0.09977572 -0.13095544 0.09184793 0.02476098 -0.064700216 0.122184634 0.08987754 0.10544722
-0.033720266 -0.14924338 0.094289266 -0.10366731 -0.020593314 0.120166175 -0.16822632 -0.083249345
0.034316473 0.15921418 0.123087 -0.03598654 -0.09568604 -0.15757935 0.15295272 -0.071697935
-0.16956961 -0.07302513 0.1010535 0.06319186 0.023700364 -0.108595595 0.12919992 0.07325332
0.12286597 0.06027191 -0.09240267 -0.03027874 -0.096077725 -0.03835555 0.11052295 -0.05306782
-0.049274758 -0.13670714 0.07186962 -0.06749059 -0.031578533 -0.17166851 0.04058004 0.031784005
0.134158 0.16178258 0.061917804 -0.022820603 -0.032670535 -0.018740855 0.10278302 0.14153007
-0.09419999 -0.048016615 0.17528157 -0.0066002985 -0.16134797 0.013537187 -0.13261661 -0.015423214
-0.02362566 -0.15341407 -0.0725764 0.10482292 0.06477458 0.13676156 -0.16473226 0.06981535
-0.053977057 0.11250686 -0.103291094 -0.10294324 -0.1757104 0.07061736 0.03815566 -0.003710629
0.03692668 0.12470432 -0.16971985 -0.07801876 -0.11378591 0.09204216 0.14461666 -0.00471458
-0.11876835 -0.028591055 -0.12967557 -0.061770484 -0.0650944 0.14693564 0.07749464 0.16387741
-0.08979911 -0.030900387 0.017306337 -0.036582056 0.12420871 -0.15402515 0.09766321 -0.15600705
0.012260927 0.10085349 0.13242987 0.111908734 0.05302288 -0.037064347 0.014915454 -0.15031806
0.1228821 0.08721636 -0.04766364 0.17445295 0.122253105 -0.08067188 0.06280698 0.15441601
0.099714264 0.13998617 0.070825696 -0.14461628 0.04672294 0.08710712 -0.13158323 -0.118207015
-0.011425141 -0.10329704 0.06441902 -0.13329516 -0.092372395 -0.0010589109 0.011398386 0.11737731
-0.099634446 -0.00088474515 0.17222986 -0.061218273 0.16198957 -0.0011180729 -0.0531237 0.11485555
-0.110232934 -0.14965124 -0.110152036 -0.088665694 0.05977359 0.022431921 -0.124511145 0.114543945
-0.0914024 -0.1411413 0.0058579836 -0.12639257 0.063177794 -0.13899094 -0.108248495 0.043674227
-0.0064598285 0.15727131 0.16791861 0.109712206 -0.082999654 -0.02068879 -0.14304121 -0.13390644
-0.1206514 -0.13920179 -0.014916831 0.012054117 0.058502037 -0.094332516 0.031306215 0.044814415
-0.07251038 -0.17256807 0.13013999 -0.012481536 -0.018640881 -0.041919235 0.068675 0.054412413
0.14242385 -0.09635358 0.16797453 -0.07367715 -0.030971726 -0.016458819 0.0924343 -0.120305106

capa2.bias f4 [16]
00000000: 827d 24bc a781 ae3d 14f1 f0bc f007 023e
00000010: b0ab a23b 5a73 963c 0014 f63d 9910 c7bd
00000020: ad88 f3bc 0ece b83d 877f 3c3d 8141 773d
00000030: 4227 97bc 2608 f2bd 41ec b4bd 8c9f 753b
-0.010039689 0.08520823 -0.02941183 0.1269834 0.0049643144 0.01836555 0.120155334 -0.097199626
-0.029728258 0.09023677 0.046020057 0.060365204 -0.018451337 -0.118179604 -0.08834124 0.003747913

capa3.weight f4 [8, 16]
00000000: 9e94 483e 1cf2 4c3e b8dc b43d d838 20bd
00000010: 8632 5e3e 543f 1ebe a46a 433e 503c ff3d
00000020: 18a9 ab3d a66c 6bbe 4ad9 28be bef9 04be
00000030: 00f1 6cbd a0cb c5bd 64fa 423e 44b5 35be
00000040: 03b0 213e bf9c 363e eb8f 2fbe 55e8 7b3d
00000050: ed11 b6bd 71a1 2b3e 7eef efbd f76b 583d
00000060: 42e0 1a3e d31c 453c 5edf 953d 7798 da3d
00000070: c3cb 0ebe 533d 42bd ea2d f73c 6351 3ebd
00000080: 87d9 2f3e a906 413e 4b48 c6bc c769 343e
00000090: ac5a 9aba 037d 3a3e b3b7 4f3e 68ca b8bd
000000a0: d02f c7bc 3728 46be a916 793e 22e0 663d
000000b0: 4ae9 d2bc ab6b 9abb bdb1 533e 2edb 983d
000000c0: 5cc0 6bbe 2d0a 263d ec49 f83c 1e5e f23d
000000d0: 48ce 983d faf8 a93d 47a2 133e 7c47 3e3e
000000e0: b0fd 99bc 47b8 cb3d 5a2c 7abe 232e f5bc
000000f0: 7ad0 613c 93c5 8abd a7c1 dcbd 7cff 053e
00000100: 497e e23d d9e7 9c3d 519f b33d efe1 e4bd
00000110: abb2 153d b31f 083d 5fcc fabd 1335 0a3e
00000120: 6b2e 8dbd 59ae 73be 1993 793e 8a72 dbbb
00000130: 4fb1 503e e3f3 693e 5fbe 3b3e fffd 49be
00000140: 08b5 e03d 1c4b 0f3d d98f 50be 1f1f 38be
00000150: 8991 d6bc 8a45 d8bc 2819 09bc b322 cdbc
00000160: eec4 773e ecce 253e 1d70 f83c 62d1 1b3e
00000170: c870 66be 2846 613c c921 be3d 917f b6bc
00000180: 77eb 323e e196 aa3c 31a9 57be b83d 99bd
00000190: 24c0 253d a3c5 dd3b 4e37 e1bd 0278 e3bd
000001a0: b243 313e 88c3 2bbe 6a12 6d3e 287d 8ebd
000001b0: 1559 2a3e c93c 0abe 6528 303e 6308 66be
000001c0: e60a 9b3c feb8 d03d 4b0c 53be 364a ac3d
000001d0: 3996 1bbe ced8 973d a9a9 513e 2219 093e
000001e0: 9a01 31bc 15fc 513e 829b febd 55aa 09be
000001f0: 1107 11be 0c83 133c 2f7f 6ebe f9e3 7cbe
0.19587943 0.20014232 0.08831161 -0.03911671 0.2169896 -0.15453845 0.19083649 0.124626756
0.083818614 -0.22990665 -0.16489139 -0.12985894 -0.057847023 -0.09657979 0.19040829 -0.17744929
0.157898 0.17833231 -0.17144744 0.061500866 -0.08890138 0.16760804 -0.117156014 0.05283734
0.1512461 0.012030798 0.073179945 0.106736116 -0.13944916 -0.047421765 0.03017326 -0.046464335
0.17172824 0.18850197 -0.024204394 0.17618476 -0.001177629 0.1821175 0.2028492 -0.09022981
-0.024314791 -0.19351278 0.2432505 0.056366093 -0.025746007 -0.004712542 0.2067327 0.0746368
-0.23022598 0.040537048 0.030308686 0.11834358 0.0746122 0.08299442 0.14417373 0.18581957
-0.018797725 0.099472575 -0.24430981 -0.029929226 0.013782615 -0.067759655 -0.10779124 0.13085741
0.11059243 0.07661409 0.087706216 -0.11175906 0.036547344 0.033233356 -0.12246012 0.13496809
-0.06893619 -0.23796977 0.2437252 -0.0066970037 0.20380138 0.22846942 0.1833434 -0.19725798
0.10972029 0.03498374 -0.20367374 -0.17980622 -0.026192443 -0.026400346 -0.008367814 -0.02504096
0.24196216 0.16192216 0.030326897 0.15216592 -0.2250396 0.013749637 0.09283788 -0.022277625
0.17472635 0.020823898 -0.21060635 -0.07482475 0.040466443 0.006767945 -0.10996877 -0.11106874
0.1731098 -0.16773808 0.23151556 -0.069574654 0.16635545 -0.1349975 0.1720291 -0.22464137
0.018926095 0.101915345 -0.20610158 0.08412592 -0.15194024 0.07414399 0.20474876 0.13388494
-0.0108036045 0.20506318 -0.124320045 -0.13443883 -0.14162852 0.009003412 -0.23290704 -0.2469634

capa3.bias f4 [8]
00000000: 4c74 40be 3dd6 3c3d 3797 3c3e 00b4 34be
00000010: c51d 58bd ff89 99bd dc73 753e 7b67 043e
-0.18794364 0.04610275 0.18417059 -0.1764679 -0.052762765 -0.07497024 0.23969978 0.129301

capa4.weight f4 [1, 8]
00000000: 15da a73e 85f8 af3e 9678 38be 0c28 143e
00000010: a31c 9ebe 44f6 9dbe 5b24 bbbb ee21 a3be
0.3278357 0.34369293 -0.1801475 0.14468402 -0.30881223 -0.30851948 -0.005711121 -0.31861824
